…
I0329 22:27:03.745472  6748 net.cpp:294] The NetState phase (0) differed from the phase (1) specified by a rule in layer data
I0329 22:27:03.745973  6748 net.cpp:294] The NetState phase (0) differed from the phase (1) specified by a rule in layer accuracy
I0329 22:27:03.746474  6748 net.cpp:51] Initializing net from parameters: 
name: "AlexNet"
state {
  phase: TRAIN
  level: 0
  stage: ""
}
layer {
  name: "data"
  type: "HDF5Data"
  top: "data"
  top: "label"
  include {
    phase: TRAIN
  }
  hdf5_data_param {
    source: "E:/CAFFE/caffe-windows/models/bvlc_alexnet/Htrain.txt"
    batch_size: 10
  }
}
layer {
  name: "conv1"
  type: "Convolution"
  bottom: "data"
  top: "conv1"
  param {
    lr_mult: 1
    decay_mult: 1
  }
  param {
    lr_mult: 2
    decay_mult: 0
  }
  convolution_param {
    num_output: 10
    kernel_size: 11
    stride: 4
    weight_filler {
      type: "gaussian"
      std: 0.01
    }
    bias_filler {
      type: "constant"
      value: 0
    }
  }
}
layer {
  name: "relu1"
  type: "ReLU"
  bottom: "conv1"
  top: "conv1"
}
layer {
  name: "norm1"
  type: "LRN"
  bottom: "conv1"
  top: "norm1"
  lrn_param {
    local_size: 5
    alpha: 0.0001
    beta: 0.75
  }
}
layer {
  name: "fc8"
  type: "InnerProduct"
  bottom: "norm1"
  top: "fc8"
  param {
    lr_mult: 1
    decay_mult: 1
  }
  param {
    lr_mult: 2
    decay_mult: 0
  }
  inner_product_param {
    num_output: 38
    weight_filler {
      type: "gaussian"
      std: 0.01
    }
    bias_filler {
      type: "constant"
      value: 0
    }
  }
}
layer {
  name: "loss"
  type: "SoftmaxWithLoss"
  bottom: "fc8"
  bottom: "label"
  top: "loss"
}
I0329 22:27:03.746974  6748 layer_factory.cpp:58] Creating layer data
I0329 22:27:03.746974  6748 net.cpp:84] Creating Layer data
I0329 22:27:03.747474  6748 net.cpp:380] data -> data
I0329 22:27:03.747975  6748 net.cpp:380] data -> label
I0329 22:27:03.747975  6748 hdf5_data_layer.cpp:80] Loading list of HDF5 filenames from: E:/CAFFE/caffe-windows/models/bvlc_alexnet/Htrain.txt
I0329 22:27:03.748476  6748 hdf5_data_layer.cpp:94] Number of HDF5 files: 1
I0329 22:27:03.749977  6748 hdf5.cpp:32] Datatype class: H5T_FLOAT
I0329 22:27:03.947165  6748 net.cpp:122] Setting up data
I0329 22:27:03.947165  6748 net.cpp:129] Top shape: 10 1 192 168 (322560)
I0329 22:27:03.947665  6748 net.cpp:129] Top shape: 10 1 (10)
I0329 22:27:03.948166  6748 net.cpp:137] Memory required for data: 1290280
I0329 22:27:03.948166  6748 layer_factory.cpp:58] Creating layer conv1
I0329 22:27:03.948668  6748 net.cpp:84] Creating Layer conv1
I0329 22:27:03.949167  6748 net.cpp:406] conv1 <- data
I0329 22:27:03.949167  6748 net.cpp:380] conv1 -> conv1
I0329 22:27:03.949667  6748 common.cpp:36] System entropy source not available, using fallback algorithm to generate seed instead.
I0329 22:27:04.130841  6748 net.cpp:122] Setting up conv1
I0329 22:27:04.130841  6748 net.cpp:129] Top shape: 10 10 46 40 (184000)
I0329 22:27:04.131341  6748 net.cpp:137] Memory required for data: 2026280
I0329 22:27:04.131841  6748 layer_factory.cpp:58] Creating layer relu1
I0329 22:27:04.132342  6748 net.cpp:84] Creating Layer relu1
I0329 22:27:04.132342  6748 net.cpp:406] relu1 <- conv1
I0329 22:27:04.132843  6748 net.cpp:367] relu1 -> conv1 (in-place)
I0329 22:27:04.134343  6748 net.cpp:122] Setting up relu1
I0329 22:27:04.134343  6748 net.cpp:129] Top shape: 10 10 46 40 (184000)
I0329 22:27:04.134343  6748 net.cpp:137] Memory required for data: 2762280
I0329 22:27:04.134845  6748 layer_factory.cpp:58] Creating layer norm1
I0329 22:27:04.135345  6748 net.cpp:84] Creating Layer norm1
I0329 22:27:04.135845  6748 net.cpp:406] norm1 <- conv1
I0329 22:27:04.135845  6748 net.cpp:380] norm1 -> norm1
I0329 22:27:04.136847  6748 net.cpp:122] Setting up norm1
I0329 22:27:04.137346  6748 net.cpp:129] Top shape: 10 10 46 40 (184000)
I0329 22:27:04.137346  6748 net.cpp:137] Memory required for data: 3498280
I0329 22:27:04.137847  6748 layer_factory.cpp:58] Creating layer fc8
I0329 22:27:04.138347  6748 net.cpp:84] Creating Layer fc8
I0329 22:27:04.138347  6748 net.cpp:406] fc8 <- norm1
I0329 22:27:04.138849  6748 net.cpp:380] fc8 -> fc8
I0329 22:27:04.148357  6748 net.cpp:122] Setting up fc8
I0329 22:27:04.148859  6748 net.cpp:129] Top shape: 10 38 (380)
I0329 22:27:04.148859  6748 net.cpp:137] Memory required for data: 3499800
I0329 22:27:04.149358  6748 layer_factory.cpp:58] Creating layer loss
I0329 22:27:04.149858  6748 net.cpp:84] Creating Layer loss
I0329 22:27:04.150359  6748 net.cpp:406] loss <- fc8
I0329 22:27:04.150359  6748 net.cpp:406] loss <- label
I0329 22:27:04.150859  6748 net.cpp:380] loss -> loss
I0329 22:27:04.151360  6748 layer_factory.cpp:58] Creating layer loss
…
I0329 22:27:04.156865  6748 solver.cpp:173] Creating test net (#0) specified by net file: E:/CAFFE/caffe-windows/models/bvlc_alexnet/train_val.prototxt
I0329 22:27:04.157866  6748 net.cpp:294] The NetState phase (1) differed from the phase (0) specified by a rule in layer data
I0329 22:27:04.157866  6748 net.cpp:51] Initializing net from parameters: 
name: "AlexNet"
state {
  phase: TEST
}
layer {
  name: "data"
  type: "HDF5Data"
  top: "data"
  top: "label"
  include {
    phase: TEST
  }
  hdf5_data_param {
    source: "E:/CAFFE/caffe-windows/models/bvlc_alexnet/Htest.txt"
    batch_size: 10
  }
}
layer {
  name: "conv1"
  type: "Convolution"
  bottom: "data"
  top: "conv1"
  param {
    lr_mult: 1
    decay_mult: 1
  }
  param {
    lr_mult: 2
    decay_mult: 0
  }
  convolution_param {
    num_output: 10
    kernel_size: 11
    stride: 4
    weight_filler {
      type: "gaussian"
      std: 0.01
    }
    bias_filler {
      type: "constant"
      value: 0
    }
  }
}
layer {
  name: "relu1"
  type: "ReLU"
  bottom: "conv1"
  top: "conv1"
}
layer {
  name: "norm1"
  type: "LRN"
  bottom: "conv1"
  top: "norm1"
  lrn_param {
    local_size: 5
    alpha: 0.0001
    beta: 0.75
  }
}
layer {
  name: "fc8"
  type: "InnerProduct"
  bottom: "norm1"
  top: "fc8"
  param {
    lr_mult: 1
    decay_mult: 1
  }
  param {
    lr_mult: 2
    decay_mult: 0
  }
  inner_product_param {
    num_output: 38
    weight_filler {
      type: "gaussian"
      std: 0.01
    }
    bias_filler {
      type: "constant"
      value: 0
    }
  }
}
layer {
  name: "accuracy"
  type: "Accuracy"
  bottom: "fc8"
  bottom: "label"
  top: "accuracy"
  include {
    phase: TEST
  }
}
layer {
  name: "loss"
  type: "SoftmaxWithLoss"
  bottom: "fc8"
  bottom: "label"
  top: "loss"
}
I0329 22:27:04.158867  6748 layer_factory.cpp:58] Creating layer data
I0329 22:27:04.159368  6748 net.cpp:84] Creating Layer data
I0329 22:27:04.159368  6748 net.cpp:380] data -> data
I0329 22:27:04.159868  6748 net.cpp:380] data -> label
I0329 22:27:04.160369  6748 hdf5_data_layer.cpp:80] Loading list of HDF5 filenames from: E:/CAFFE/caffe-windows/models/bvlc_alexnet/Htest.txt
I0329 22:27:04.160869  6748 hdf5_data_layer.cpp:94] Number of HDF5 files: 1
I0329 22:27:04.357558  6748 net.cpp:122] Setting up data
I0329 22:27:04.357558  6748 net.cpp:129] Top shape: 10 1 192 168 (322560)
I0329 22:27:04.358057  6748 net.cpp:129] Top shape: 10 1 (10)
I0329 22:27:04.358557  6748 net.cpp:137] Memory required for data: 1290280
I0329 22:27:04.359058  6748 layer_factory.cpp:58] Creating layer label_data_1_split
I0329 22:27:04.359558  6748 net.cpp:84] Creating Layer label_data_1_split
I0329 22:27:04.359558  6748 net.cpp:406] label_data_1_split <- label
I0329 22:27:04.360059  6748 net.cpp:380] label_data_1_split -> label_data_1_split_0
I0329 22:27:04.360559  6748 net.cpp:380] label_data_1_split -> label_data_1_split_1
I0329 22:27:04.360559  6748 net.cpp:122] Setting up label_data_1_split
I0329 22:27:04.361060  6748 net.cpp:129] Top shape: 10 1 (10)
I0329 22:27:04.361562  6748 net.cpp:129] Top shape: 10 1 (10)
I0329 22:27:04.361562  6748 net.cpp:137] Memory required for data: 1290360
I0329 22:27:04.362061  6748 layer_factory.cpp:58] Creating layer conv1
I0329 22:27:04.362561  6748 net.cpp:84] Creating Layer conv1
I0329 22:27:04.362561  6748 net.cpp:406] conv1 <- data
I0329 22:27:04.363062  6748 net.cpp:380] conv1 -> conv1
I0329 22:27:04.365064  6748 net.cpp:122] Setting up conv1
I0329 22:27:04.365064  6748 net.cpp:129] Top shape: 10 10 46 40 (184000)
I0329 22:27:04.365564  6748 net.cpp:137] Memory required for data: 2026360
I0329 22:27:04.366065  6748 layer_factory.cpp:58] Creating layer relu1
I0329 22:27:04.367066  6748 net.cpp:84] Creating Layer relu1
I0329 22:27:04.367566  6748 net.cpp:406] relu1 <- conv1
I0329 22:27:04.367566  6748 net.cpp:367] relu1 -> conv1 (in-place)
I0329 22:27:04.368567  6748 net.cpp:122] Setting up relu1
I0329 22:27:04.369067  6748 net.cpp:129] Top shape: 10 10 46 40 (184000)
I0329 22:27:04.369067  6748 net.cpp:137] Memory required for data: 2762360
I0329 22:27:04.369568  6748 layer_factory.cpp:58] Creating layer norm1
I0329 22:27:04.370069  6748 net.cpp:84] Creating Layer norm1
I0329 22:27:04.370069  6748 net.cpp:406] norm1 <- conv1
I0329 22:27:04.370569  6748 net.cpp:380] norm1 -> norm1
I0329 22:27:04.371069  6748 net.cpp:122] Setting up norm1
I0329 22:27:04.371570  6748 net.cpp:129] Top shape: 10 10 46 40 (184000)
I0329 22:27:04.371570  6748 net.cpp:137] Memory required for data: 3498360
I0329 22:27:04.372071  6748 layer_factory.cpp:58] Creating layer fc8
I0329 22:27:04.372571  6748 net.cpp:84] Creating Layer fc8
I0329 22:27:04.372571  6748 net.cpp:406] fc8 <- norm1
I0329 22:27:04.373071  6748 net.cpp:380] fc8 -> fc8
I0329 22:27:04.383081  6748 net.cpp:122] Setting up fc8
I0329 22:27:04.383081  6748 net.cpp:129] Top shape: 10 38 (380)
I0329 22:27:04.383582  6748 net.cpp:137] Memory required for data: 3499880
I0329 22:27:04.383582  6748 layer_factory.cpp:58] Creating layer fc8_fc8_0_split
I0329 22:27:04.384083  6748 net.cpp:84] Creating Layer fc8_fc8_0_split
I0329 22:27:04.385083  6748 net.cpp:406] fc8_fc8_0_split <- fc8
I0329 22:27:04.385583  6748 net.cpp:380] fc8_fc8_0_split -> fc8_fc8_0_split_0
I0329 22:27:04.385583  6748 net.cpp:380] fc8_fc8_0_split -> fc8_fc8_0_split_1
I0329 22:27:04.386085  6748 net.cpp:122] Setting up fc8_fc8_0_split
I0329 22:27:04.386085  6748 net.cpp:129] Top shape: 10 38 (380)
I0329 22:27:04.386584  6748 net.cpp:129] Top shape: 10 38 (380)
I0329 22:27:04.387085  6748 net.cpp:137] Memory required for data: 3502920
I0329 22:27:04.387085  6748 layer_factory.cpp:58] Creating layer accuracy
I0329 22:27:04.387585  6748 net.cpp:84] Creating Layer accuracy
I0329 22:27:04.388087  6748 net.cpp:406] accuracy <- fc8_fc8_0_split_0
I0329 22:27:04.388087  6748 net.cpp:406] accuracy <- label_data_1_split_0
I0329 22:27:04.388586  6748 net.cpp:380] accuracy -> accuracy
…
