…
I0329 23:58:24.946622   936 net.cpp:294] The NetState phase (0) differed from the phase (1) specified by a rule in layer data
I0329 23:58:24.947623   936 net.cpp:294] The NetState phase (0) differed from the phase (1) specified by a rule in layer accuracy
I0329 23:58:24.947623   936 net.cpp:51] Initializing net from parameters: 
name: "AlexNet"
state {
  phase: TRAIN
  level: 0
  stage: ""
}
layer {
  name: "data"
  type: "HDF5Data"
  top: "data"
  top: "label"
  include {
    phase: TRAIN
  }
  hdf5_data_param {
    source: "E:/CAFFE/caffe-windows/models/bvlc_alexnet/Htrain.txt"
    batch_size: 50
  }
}
layer {
  name: "conv1"
  type: "Convolution"
  bottom: "data"
  top: "conv1"
  param {
    lr_mult: 1
    decay_mult: 1
  }
  param {
    lr_mult: 2
    decay_mult: 0
  }
  convolution_param {
    num_output: 1
    kernel_size: 11
    stride: 4
    weight_filler {
      type: "gaussian"
      std: 0.01
    }
    bias_filler {
      type: "constant"
      value: 0
    }
  }
}
layer {
  name: "relu1"
  type: "ReLU"
  bottom: "conv1"
  top: "conv1"
}
layer {
  name: "norm1"
  type: "LRN"
  bottom: "conv1"
  top: "norm1"
  lrn_param {
    local_size: 5
    alpha: 0.0001
    beta: 0.75
  }
}
layer {
  name: "fc8"
  type: "InnerProduct"
  bottom: "norm1"
  top: "fc8"
  param {
    lr_mult: 1
    decay_mult: 1
  }
  param {
    lr_mult: 2
    decay_mult: 0
  }
  inner_product_param {
    num_output: 38
    weight_filler {
      type: "gaussian"
      std: 0.01
    }
    bias_filler {
      type: "constant"
      value: 0
    }
  }
}
layer {
  name: "loss"
  type: "SoftmaxWithLoss"
  bottom: "fc8"
  bottom: "label"
  top: "loss"
}
I0329 23:58:24.948623   936 layer_factory.cpp:58] Creating layer data
I0329 23:58:24.949126   936 net.cpp:84] Creating Layer data
I0329 23:58:24.949126   936 net.cpp:380] data -> data
I0329 23:58:24.949626   936 net.cpp:380] data -> label
I0329 23:58:24.950127   936 hdf5_data_layer.cpp:80] Loading list of HDF5 filenames from: E:/CAFFE/caffe-windows/models/bvlc_alexnet/Htrain.txt
I0329 23:58:24.950127   936 hdf5_data_layer.cpp:94] Number of HDF5 files: 1
I0329 23:58:24.951629   936 hdf5.cpp:32] Datatype class: H5T_FLOAT
I0329 23:58:25.143818   936 net.cpp:122] Setting up data
I0329 23:58:25.144819   936 net.cpp:129] Top shape: 50 1 192 168 (1612800)
I0329 23:58:25.144819   936 net.cpp:129] Top shape: 50 1 (50)
I0329 23:58:25.144819   936 net.cpp:137] Memory required for data: 6451400
I0329 23:58:25.145820   936 layer_factory.cpp:58] Creating layer conv1
I0329 23:58:25.145820   936 net.cpp:84] Creating Layer conv1
I0329 23:58:25.145820   936 net.cpp:406] conv1 <- data
I0329 23:58:25.146821   936 net.cpp:380] conv1 -> conv1
I0329 23:58:25.146821   936 common.cpp:36] System entropy source not available, using fallback algorithm to generate seed instead.
I0329 23:58:25.333847   936 net.cpp:122] Setting up conv1
I0329 23:58:25.334848   936 net.cpp:129] Top shape: 50 1 46 40 (92000)
I0329 23:58:25.334848   936 net.cpp:137] Memory required for data: 6819400
I0329 23:58:25.334848   936 layer_factory.cpp:58] Creating layer relu1
I0329 23:58:25.335850   936 net.cpp:84] Creating Layer relu1
I0329 23:58:25.335850   936 net.cpp:406] relu1 <- conv1
I0329 23:58:25.335850   936 net.cpp:367] relu1 -> conv1 (in-place)
I0329 23:58:25.336850   936 net.cpp:122] Setting up relu1
I0329 23:58:25.338852   936 net.cpp:129] Top shape: 50 1 46 40 (92000)
I0329 23:58:25.338852   936 net.cpp:137] Memory required for data: 7187400
I0329 23:58:25.338852   936 layer_factory.cpp:58] Creating layer norm1
I0329 23:58:25.339854   936 net.cpp:84] Creating Layer norm1
I0329 23:58:25.339854   936 net.cpp:406] norm1 <- conv1
I0329 23:58:25.339854   936 net.cpp:380] norm1 -> norm1
I0329 23:58:25.340854   936 net.cpp:122] Setting up norm1
I0329 23:58:25.340854   936 net.cpp:129] Top shape: 50 1 46 40 (92000)
I0329 23:58:25.341856   936 net.cpp:137] Memory required for data: 7555400
I0329 23:58:25.341856   936 layer_factory.cpp:58] Creating layer fc8
I0329 23:58:25.341856   936 net.cpp:84] Creating Layer fc8
I0329 23:58:25.343858   936 net.cpp:406] fc8 <- norm1
I0329 23:58:25.343858   936 net.cpp:380] fc8 -> fc8
I0329 23:58:25.345860   936 net.cpp:122] Setting up fc8
I0329 23:58:25.345860   936 net.cpp:129] Top shape: 50 38 (1900)
I0329 23:58:25.345860   936 net.cpp:137] Memory required for data: 7563000
I0329 23:58:25.346860   936 layer_factory.cpp:58] Creating layer loss
I0329 23:58:25.346860   936 net.cpp:84] Creating Layer loss
I0329 23:58:25.346860   936 net.cpp:406] loss <- fc8
I0329 23:58:25.347861   936 net.cpp:406] loss <- label
I0329 23:58:25.347861   936 net.cpp:380] loss -> loss
I0329 23:58:25.347861   936 layer_factory.cpp:58] Creating layer loss
…
I0329 23:58:25.353868   936 solver.cpp:173] Creating test net (#0) specified by net file: E:/CAFFE/caffe-windows/models/bvlc_alexnet/train_val.prototxt
I0329 23:58:25.354369   936 net.cpp:294] The NetState phase (1) differed from the phase (0) specified by a rule in layer data
I0329 23:58:25.354369   936 net.cpp:51] Initializing net from parameters: 
name: "AlexNet"
state {
  phase: TEST
}
layer {
  name: "data"
  type: "HDF5Data"
  top: "data"
  top: "label"
  include {
    phase: TEST
  }
  hdf5_data_param {
    source: "E:/CAFFE/caffe-windows/models/bvlc_alexnet/Htest.txt"
    batch_size: 50
  }
}
layer {
  name: "conv1"
  type: "Convolution"
  bottom: "data"
  top: "conv1"
  param {
    lr_mult: 1
    decay_mult: 1
  }
  param {
    lr_mult: 2
    decay_mult: 0
  }
  convolution_param {
    num_output: 1
    kernel_size: 11
    stride: 4
    weight_filler {
      type: "gaussian"
      std: 0.01
    }
    bias_filler {
      type: "constant"
      value: 0
    }
  }
}
layer {
  name: "relu1"
  type: "ReLU"
  bottom: "conv1"
  top: "conv1"
}
layer {
  name: "norm1"
  type: "LRN"
  bottom: "conv1"
  top: "norm1"
  lrn_param {
    local_size: 5
    alpha: 0.0001
    beta: 0.75
  }
}
layer {
  name: "fc8"
  type: "InnerProduct"
  bottom: "norm1"
  top: "fc8"
  param {
    lr_mult: 1
    decay_mult: 1
  }
  param {
    lr_mult: 2
    decay_mult: 0
  }
  inner_product_param {
    num_output: 38
    weight_filler {
      type: "gaussian"
      std: 0.01
    }
    bias_filler {
      type: "constant"
      value: 0
    }
  }
}
layer {
  name: "accuracy"
  type: "Accuracy"
  bottom: "fc8"
  bottom: "label"
  top: "accuracy"
  include {
    phase: TEST
  }
}
layer {
  name: "loss"
  type: "SoftmaxWithLoss"
  bottom: "fc8"
  bottom: "label"
  top: "loss"
}
I0329 23:58:25.355370   936 layer_factory.cpp:58] Creating layer data
I0329 23:58:25.355370   936 net.cpp:84] Creating Layer data
I0329 23:58:25.355870   936 net.cpp:380] data -> data
I0329 23:58:25.355870   936 net.cpp:380] data -> label
I0329 23:58:25.356371   936 hdf5_data_layer.cpp:80] Loading list of HDF5 filenames from: E:/CAFFE/caffe-windows/models/bvlc_alexnet/Htest.txt
I0329 23:58:25.356871   936 hdf5_data_layer.cpp:94] Number of HDF5 files: 1
I0329 23:58:25.548059   936 net.cpp:122] Setting up data
I0329 23:58:25.548059   936 net.cpp:129] Top shape: 50 1 192 168 (1612800)
I0329 23:58:25.548059   936 net.cpp:129] Top shape: 50 1 (50)
I0329 23:58:25.549062   936 net.cpp:137] Memory required for data: 6451400
I0329 23:58:25.549563   936 layer_factory.cpp:58] Creating layer label_data_1_split
I0329 23:58:25.549563   936 net.cpp:84] Creating Layer label_data_1_split
I0329 23:58:25.550065   936 net.cpp:406] label_data_1_split <- label
I0329 23:58:25.550565   936 net.cpp:380] label_data_1_split -> label_data_1_split_0
I0329 23:58:25.550565   936 net.cpp:380] label_data_1_split -> label_data_1_split_1
I0329 23:58:25.551065   936 net.cpp:122] Setting up label_data_1_split
I0329 23:58:25.551565   936 net.cpp:129] Top shape: 50 1 (50)
I0329 23:58:25.551565   936 net.cpp:129] Top shape: 50 1 (50)
I0329 23:58:25.552067   936 net.cpp:137] Memory required for data: 6451800
I0329 23:58:25.552567   936 layer_factory.cpp:58] Creating layer conv1
I0329 23:58:25.552567   936 net.cpp:84] Creating Layer conv1
I0329 23:58:25.553067   936 net.cpp:406] conv1 <- data
I0329 23:58:25.553567   936 net.cpp:380] conv1 -> conv1
I0329 23:58:25.555068   936 net.cpp:122] Setting up conv1
I0329 23:58:25.555569   936 net.cpp:129] Top shape: 50 1 46 40 (92000)
I0329 23:58:25.555569   936 net.cpp:137] Memory required for data: 6819800
I0329 23:58:25.556069   936 layer_factory.cpp:58] Creating layer relu1
I0329 23:58:25.557070   936 net.cpp:84] Creating Layer relu1
I0329 23:58:25.557571   936 net.cpp:406] relu1 <- conv1
I0329 23:58:25.558073   936 net.cpp:367] relu1 -> conv1 (in-place)
I0329 23:58:25.558573   936 net.cpp:122] Setting up relu1
I0329 23:58:25.559072   936 net.cpp:129] Top shape: 50 1 46 40 (92000)
I0329 23:58:25.559072   936 net.cpp:137] Memory required for data: 7187800
I0329 23:58:25.559573   936 layer_factory.cpp:58] Creating layer norm1
I0329 23:58:25.560075   936 net.cpp:84] Creating Layer norm1
I0329 23:58:25.560075   936 net.cpp:406] norm1 <- conv1
I0329 23:58:25.560575   936 net.cpp:380] norm1 -> norm1
I0329 23:58:25.561074   936 net.cpp:122] Setting up norm1
I0329 23:58:25.561074   936 net.cpp:129] Top shape: 50 1 46 40 (92000)
I0329 23:58:25.561575   936 net.cpp:137] Memory required for data: 7555800
I0329 23:58:25.562075   936 layer_factory.cpp:58] Creating layer fc8
I0329 23:58:25.562075   936 net.cpp:84] Creating Layer fc8
I0329 23:58:25.562577   936 net.cpp:406] fc8 <- norm1
I0329 23:58:25.563076   936 net.cpp:380] fc8 -> fc8
I0329 23:58:25.564077   936 net.cpp:122] Setting up fc8
I0329 23:58:25.564077   936 net.cpp:129] Top shape: 50 38 (1900)
I0329 23:58:25.564577   936 net.cpp:137] Memory required for data: 7563400
I0329 23:58:25.565078   936 layer_factory.cpp:58] Creating layer fc8_fc8_0_split
I0329 23:58:25.565078   936 net.cpp:84] Creating Layer fc8_fc8_0_split
I0329 23:58:25.565078   936 net.cpp:406] fc8_fc8_0_split <- fc8
I0329 23:58:25.565078   936 net.cpp:380] fc8_fc8_0_split -> fc8_fc8_0_split_0
I0329 23:58:25.567081   936 net.cpp:380] fc8_fc8_0_split -> fc8_fc8_0_split_1
I0329 23:58:25.567081   936 net.cpp:122] Setting up fc8_fc8_0_split
I0329 23:58:25.567081   936 net.cpp:129] Top shape: 50 38 (1900)
I0329 23:58:25.568084   936 net.cpp:129] Top shape: 50 38 (1900)
I0329 23:58:25.568084   936 net.cpp:137] Memory required for data: 7578600
I0329 23:58:25.568084   936 layer_factory.cpp:58] Creating layer accuracy
I0329 23:58:25.569083   936 net.cpp:84] Creating Layer accuracy
I0329 23:58:25.569083   936 net.cpp:406] accuracy <- fc8_fc8_0_split_0
I0329 23:58:25.569083   936 net.cpp:406] accuracy <- label_data_1_split_0
I0329 23:58:25.570086   936 net.cpp:380] accuracy -> accuracy
…
