…
I0329 22:43:34.580900  6236 net.cpp:294] The NetState phase (0) differed from the phase (1) specified by a rule in layer data
I0329 22:43:34.580900  6236 net.cpp:294] The NetState phase (0) differed from the phase (1) specified by a rule in layer accuracy
I0329 22:43:34.581400  6236 net.cpp:51] Initializing net from parameters: 
name: "AlexNet"
state {
  phase: TRAIN
  level: 0
  stage: ""
}
layer {
  name: "data"
  type: "HDF5Data"
  top: "data"
  top: "label"
  include {
    phase: TRAIN
  }
  hdf5_data_param {
    source: "E:/CAFFE/caffe-windows/models/bvlc_alexnet/Htrain.txt"
    batch_size: 50
  }
}
layer {
  name: "conv1"
  type: "Convolution"
  bottom: "data"
  top: "conv1"
  param {
    lr_mult: 1
    decay_mult: 1
  }
  param {
    lr_mult: 2
    decay_mult: 0
  }
  convolution_param {
    num_output: 50
    kernel_size: 11
    stride: 4
    weight_filler {
      type: "gaussian"
      std: 0.01
    }
    bias_filler {
      type: "constant"
      value: 0
    }
  }
}
layer {
  name: "relu1"
  type: "ReLU"
  bottom: "conv1"
  top: "conv1"
}
layer {
  name: "norm1"
  type: "LRN"
  bottom: "conv1"
  top: "norm1"
  lrn_param {
    local_size: 5
    alpha: 0.0001
    beta: 0.75
  }
}
layer {
  name: "fc8"
  type: "InnerProduct"
  bottom: "norm1"
  top: "fc8"
  param {
    lr_mult: 1
    decay_mult: 1
  }
  param {
    lr_mult: 2
    decay_mult: 0
  }
  inner_product_param {
    num_output: 38
    weight_filler {
      type: "gaussian"
      std: 0.01
    }
    bias_filler {
      type: "constant"
      value: 0
    }
  }
}
layer {
  name: "loss"
  type: "SoftmaxWithLoss"
  bottom: "fc8"
  bottom: "label"
  top: "loss"
}
I0329 22:43:34.581902  6236 layer_factory.cpp:58] Creating layer data
I0329 22:43:34.582401  6236 net.cpp:84] Creating Layer data
I0329 22:43:34.582901  6236 net.cpp:380] data -> data
I0329 22:43:34.582901  6236 net.cpp:380] data -> label
I0329 22:43:34.583402  6236 hdf5_data_layer.cpp:80] Loading list of HDF5 filenames from: E:/CAFFE/caffe-windows/models/bvlc_alexnet/Htrain.txt
I0329 22:43:34.583902  6236 hdf5_data_layer.cpp:94] Number of HDF5 files: 1
I0329 22:43:34.585404  6236 hdf5.cpp:32] Datatype class: H5T_FLOAT
I0329 22:43:34.783593  6236 net.cpp:122] Setting up data
I0329 22:43:34.783593  6236 net.cpp:129] Top shape: 50 1 192 168 (1612800)
I0329 22:43:34.784095  6236 net.cpp:129] Top shape: 50 1 (50)
I0329 22:43:34.784595  6236 net.cpp:137] Memory required for data: 6451400
I0329 22:43:34.785095  6236 layer_factory.cpp:58] Creating layer conv1
I0329 22:43:34.785595  6236 net.cpp:84] Creating Layer conv1
I0329 22:43:34.785595  6236 net.cpp:406] conv1 <- data
I0329 22:43:34.786095  6236 net.cpp:380] conv1 -> conv1
I0329 22:43:34.787096  6236 common.cpp:36] System entropy source not available, using fallback algorithm to generate seed instead.
I0329 22:43:34.980782  6236 net.cpp:122] Setting up conv1
I0329 22:43:34.981282  6236 net.cpp:129] Top shape: 50 50 46 40 (4600000)
I0329 22:43:34.981782  6236 net.cpp:137] Memory required for data: 24851400
I0329 22:43:34.981782  6236 layer_factory.cpp:58] Creating layer relu1
I0329 22:43:34.982283  6236 net.cpp:84] Creating Layer relu1
I0329 22:43:34.982784  6236 net.cpp:406] relu1 <- conv1
I0329 22:43:34.982784  6236 net.cpp:367] relu1 -> conv1 (in-place)
I0329 22:43:34.984284  6236 net.cpp:122] Setting up relu1
I0329 22:43:34.984284  6236 net.cpp:129] Top shape: 50 50 46 40 (4600000)
I0329 22:43:34.984786  6236 net.cpp:137] Memory required for data: 43251400
I0329 22:43:34.985285  6236 layer_factory.cpp:58] Creating layer norm1
I0329 22:43:34.985786  6236 net.cpp:84] Creating Layer norm1
I0329 22:43:34.985786  6236 net.cpp:406] norm1 <- conv1
I0329 22:43:34.986286  6236 net.cpp:380] norm1 -> norm1
I0329 22:43:34.987788  6236 net.cpp:122] Setting up norm1
I0329 22:43:34.987788  6236 net.cpp:129] Top shape: 50 50 46 40 (4600000)
I0329 22:43:34.988288  6236 net.cpp:137] Memory required for data: 61651400
I0329 22:43:34.988288  6236 layer_factory.cpp:58] Creating layer fc8
I0329 22:43:34.988790  6236 net.cpp:84] Creating Layer fc8
I0329 22:43:34.988790  6236 net.cpp:406] fc8 <- norm1
I0329 22:43:34.989289  6236 net.cpp:380] fc8 -> fc8
I0329 22:43:35.037335  6236 net.cpp:122] Setting up fc8
I0329 22:43:35.037335  6236 net.cpp:129] Top shape: 50 38 (1900)
I0329 22:43:35.037837  6236 net.cpp:137] Memory required for data: 61659000
I0329 22:43:35.038336  6236 layer_factory.cpp:58] Creating layer loss
I0329 22:43:35.038336  6236 net.cpp:84] Creating Layer loss
I0329 22:43:35.038836  6236 net.cpp:406] loss <- fc8
I0329 22:43:35.039337  6236 net.cpp:406] loss <- label
I0329 22:43:35.039337  6236 net.cpp:380] loss -> loss
I0329 22:43:35.039839  6236 layer_factory.cpp:58] Creating layer loss
…
I0329 22:43:35.044843  6236 solver.cpp:173] Creating test net (#0) specified by net file: E:/CAFFE/caffe-windows/models/bvlc_alexnet/train_val.prototxt
I0329 22:43:35.044843  6236 net.cpp:294] The NetState phase (1) differed from the phase (0) specified by a rule in layer data
I0329 22:43:35.045343  6236 net.cpp:51] Initializing net from parameters: 
name: "AlexNet"
state {
  phase: TEST
}
layer {
  name: "data"
  type: "HDF5Data"
  top: "data"
  top: "label"
  include {
    phase: TEST
  }
  hdf5_data_param {
    source: "E:/CAFFE/caffe-windows/models/bvlc_alexnet/Htest.txt"
    batch_size: 50
  }
}
layer {
  name: "conv1"
  type: "Convolution"
  bottom: "data"
  top: "conv1"
  param {
    lr_mult: 1
    decay_mult: 1
  }
  param {
    lr_mult: 2
    decay_mult: 0
  }
  convolution_param {
    num_output: 50
    kernel_size: 11
    stride: 4
    weight_filler {
      type: "gaussian"
      std: 0.01
    }
    bias_filler {
      type: "constant"
      value: 0
    }
  }
}
layer {
  name: "relu1"
  type: "ReLU"
  bottom: "conv1"
  top: "conv1"
}
layer {
  name: "norm1"
  type: "LRN"
  bottom: "conv1"
  top: "norm1"
  lrn_param {
    local_size: 5
    alpha: 0.0001
    beta: 0.75
  }
}
layer {
  name: "fc8"
  type: "InnerProduct"
  bottom: "norm1"
  top: "fc8"
  param {
    lr_mult: 1
    decay_mult: 1
  }
  param {
    lr_mult: 2
    decay_mult: 0
  }
  inner_product_param {
    num_output: 38
    weight_filler {
      type: "gaussian"
      std: 0.01
    }
    bias_filler {
      type: "constant"
      value: 0
    }
  }
}
layer {
  name: "accuracy"
  type: "Accuracy"
  bottom: "fc8"
  bottom: "label"
  top: "accuracy"
  include {
    phase: TEST
  }
}
layer {
  name: "loss"
  type: "SoftmaxWithLoss"
  bottom: "fc8"
  bottom: "label"
  top: "loss"
}
I0329 22:43:35.045843  6236 layer_factory.cpp:58] Creating layer data
I0329 22:43:35.046844  6236 net.cpp:84] Creating Layer data
I0329 22:43:35.047344  6236 net.cpp:380] data -> data
I0329 22:43:35.047845  6236 net.cpp:380] data -> label
I0329 22:43:35.047845  6236 hdf5_data_layer.cpp:80] Loading list of HDF5 filenames from: E:/CAFFE/caffe-windows/models/bvlc_alexnet/Htest.txt
I0329 22:43:35.048346  6236 hdf5_data_layer.cpp:94] Number of HDF5 files: 1
I0329 22:43:35.246536  6236 net.cpp:122] Setting up data
I0329 22:43:35.247035  6236 net.cpp:129] Top shape: 50 1 192 168 (1612800)
I0329 22:43:35.247536  6236 net.cpp:129] Top shape: 50 1 (50)
I0329 22:43:35.247536  6236 net.cpp:137] Memory required for data: 6451400
I0329 22:43:35.248036  6236 layer_factory.cpp:58] Creating layer label_data_1_split
I0329 22:43:35.248538  6236 net.cpp:84] Creating Layer label_data_1_split
I0329 22:43:35.248538  6236 net.cpp:406] label_data_1_split <- label
I0329 22:43:35.249037  6236 net.cpp:380] label_data_1_split -> label_data_1_split_0
I0329 22:43:35.249538  6236 net.cpp:380] label_data_1_split -> label_data_1_split_1
I0329 22:43:35.249538  6236 net.cpp:122] Setting up label_data_1_split
I0329 22:43:35.250038  6236 net.cpp:129] Top shape: 50 1 (50)
I0329 22:43:35.250540  6236 net.cpp:129] Top shape: 50 1 (50)
I0329 22:43:35.251039  6236 net.cpp:137] Memory required for data: 6451800
I0329 22:43:35.251039  6236 layer_factory.cpp:58] Creating layer conv1
I0329 22:43:35.252040  6236 net.cpp:84] Creating Layer conv1
I0329 22:43:35.252040  6236 net.cpp:406] conv1 <- data
I0329 22:43:35.252542  6236 net.cpp:380] conv1 -> conv1
I0329 22:43:35.254542  6236 net.cpp:122] Setting up conv1
I0329 22:43:35.254542  6236 net.cpp:129] Top shape: 50 50 46 40 (4600000)
I0329 22:43:35.255543  6236 net.cpp:137] Memory required for data: 24851800
I0329 22:43:35.256044  6236 layer_factory.cpp:58] Creating layer relu1
I0329 22:43:35.256546  6236 net.cpp:84] Creating Layer relu1
I0329 22:43:35.256546  6236 net.cpp:406] relu1 <- conv1
I0329 22:43:35.257045  6236 net.cpp:367] relu1 -> conv1 (in-place)
I0329 22:43:35.258046  6236 net.cpp:122] Setting up relu1
I0329 22:43:35.258046  6236 net.cpp:129] Top shape: 50 50 46 40 (4600000)
I0329 22:43:35.258546  6236 net.cpp:137] Memory required for data: 43251800
I0329 22:43:35.259047  6236 layer_factory.cpp:58] Creating layer norm1
I0329 22:43:35.259047  6236 net.cpp:84] Creating Layer norm1
I0329 22:43:35.259547  6236 net.cpp:406] norm1 <- conv1
I0329 22:43:35.260048  6236 net.cpp:380] norm1 -> norm1
I0329 22:43:35.260548  6236 net.cpp:122] Setting up norm1
I0329 22:43:35.260548  6236 net.cpp:129] Top shape: 50 50 46 40 (4600000)
I0329 22:43:35.261049  6236 net.cpp:137] Memory required for data: 61651800
I0329 22:43:35.261549  6236 layer_factory.cpp:58] Creating layer fc8
I0329 22:43:35.261549  6236 net.cpp:84] Creating Layer fc8
I0329 22:43:35.262050  6236 net.cpp:406] fc8 <- norm1
I0329 22:43:35.262550  6236 net.cpp:380] fc8 -> fc8
I0329 22:43:35.308594  6236 net.cpp:122] Setting up fc8
I0329 22:43:35.308594  6236 net.cpp:129] Top shape: 50 38 (1900)
I0329 22:43:35.309094  6236 net.cpp:137] Memory required for data: 61659400
I0329 22:43:35.309595  6236 layer_factory.cpp:58] Creating layer fc8_fc8_0_split
I0329 22:43:35.309595  6236 net.cpp:84] Creating Layer fc8_fc8_0_split
I0329 22:43:35.310096  6236 net.cpp:406] fc8_fc8_0_split <- fc8
I0329 22:43:35.310596  6236 net.cpp:380] fc8_fc8_0_split -> fc8_fc8_0_split_0
I0329 22:43:35.310596  6236 net.cpp:380] fc8_fc8_0_split -> fc8_fc8_0_split_1
I0329 22:43:35.311096  6236 net.cpp:122] Setting up fc8_fc8_0_split
I0329 22:43:35.311597  6236 net.cpp:129] Top shape: 50 38 (1900)
I0329 22:43:35.311597  6236 net.cpp:129] Top shape: 50 38 (1900)
I0329 22:43:35.312098  6236 net.cpp:137] Memory required for data: 61674600
I0329 22:43:35.312598  6236 layer_factory.cpp:58] Creating layer accuracy
I0329 22:43:35.312598  6236 net.cpp:84] Creating Layer accuracy
I0329 22:43:35.313098  6236 net.cpp:406] accuracy <- fc8_fc8_0_split_0
I0329 22:43:35.313599  6236 net.cpp:406] accuracy <- label_data_1_split_0
I0329 22:43:35.313599  6236 net.cpp:380] accuracy -> accuracy
…
